outputs/2024-06-26/15-54-06/lightning_logs/version_0/checkpoints/epoch=9-step=17190.ckpt (torch, 855411 bytes, 24 tensors)

layer.0.weight f4 [16, 1, 5, 5]
0.15011546 0.09355221 -0.17044146 0.064699195 -0.11419659 0.041046377 -0.14736423 0.045428805
0.117255226 -0.2612072 0.18360117 0.04506151 0.076796785 -0.011581886 0.00047224117 -0.07556586
0.13667962 -0.005828671 -0.07766561 -0.01795169 -0.21952865 -0.10859922 -0.10801731 0.14699495
-0.20669629 -0.3709213 -0.15326093 -0.13267507 0.067574434 -0.29635128 0.037012804 -0.19958341
0.1893567 0.027139109 -0.23090327 -0.04858104 -0.040195562 0.13356476 -0.037851844 -0.090730615
0.015042553 -0.12019106 -0.0063787997 0.103411384 0.20253813 -0.041015822 0.12204685 0.0022157764
0.097225346 -0.039913636 -0.35659653 -0.12138075 -0.16267298 0.14521989 0.07325534 0.054232504
0.13833877 0.0809396 0.19327524 -0.12631182 0.07081948 -0.04620506 0.13767591 -0.0784447
-0.026385367 -0.02718561 0.15580186 -0.17284636 -0.20772655 -0.18200675 0.21147223 0.058820546
0.2015917 -0.056336053 -0.008267346 -0.28704512 -0.37231743 -0.054745097 0.0077662473 0.18581486
-0.31787887 -0.14648993 0.1684729 0.032990728 0.28637472 -0.28143665 0.11273852 -0.04165169
0.020752171 0.13200402 -0.0978638 -0.09834043 0.14659357 0.12827593 -0.20585157 -0.17724761
0.08145303 -0.14054404 -0.10128434 -0.12331839 -0.16683745 -0.13906322 -0.108619645 0.00685248
0.14503261 -0.086881846 -0.31988472 -0.5505176 -0.7909763 -0.32997125 0.4018827 0.22702698
0.19642805 -0.2288106 -0.3033084 0.08790282 0.14309396 -0.040489614 0.04085863 -0.090591095
0.0967513 -0.0889435 -0.013452271 -0.023699312 -0.073250115 -0.06684653 0.0046982337 -0.1512087
0.23217483 0.023302827 0.19296278 -0.06794407 -0.34762743 0.10016366 -0.02759672 -0.069331266
-0.29298875 -0.2401646 0.08867769 -0.009638109 0.09057228 -0.1033734 0.24291793 -0.04195677
0.059634943 0.1584942 0.192452 0.18463816 0.1368522 -0.11985161 0.104818664 -0.20565303
-0.10825551 -0.17931859 0.1933281 -0.059084676 0.1332417 0.13680491 0.06571318 -0.11619446
0.16135983 0.09203767 0.16678253 -0.3230946 -0.22203211 -0.28433022 -0.028689483 0.39432177
-0.021151634 -0.32324573 -0.40197584 -0.032119896 0.30142844 0.014972972 -0.14267671 -0.25171566
-0.2093294 0.12647915 0.20120613 -0.28460222 -0.043381248 0.112515844 0.08072205 -0.13829237
-0.04482765 0.17420349 0.10007409 -0.08695719 -0.1537748 -0.1610453 0.0149220545 -0.1363982
0.03670745 0.1446818 -0.16893089 -0.08964289 -0.12016718 -0.14331847 -0.051634282 -0.05494306
-0.11378536 0.0048469617 0.28711098 0.17511776 -0.03137383 -0.12726924 -0.4766336 -0.39001036
-0.08709125 0.06834443 0.24281397 0.058461767 -0.21093722 -0.0579239 0.042217825 0.22666495
0.10077171 0.100514896 0.21286546 -0.059366226 -0.19335 0.19484055 0.015464739 -0.026803575
-0.26526046 0.14672014 0.098673835 0.075029716 0.002613696 -0.0118745165 -0.06642962 0.21201126
0.18424012 0.2545584 0.12779158 0.16403446 0.06240147 -0.14516196 -0.22575428 -0.3514052
0.053057205 -0.22483154 -0.2731636 -0.2801766 -0.17713949 -0.26861855 -0.25655648 -0.053359326
0.008113695 0.14949833 -0.023106877 -0.42941704 -0.45079777 -0.5350469 -0.4352776 -0.46836403
00000000: deb7 193e 4d98 bf3d 3588 2ebe 0381 843d
00000010: e7df e9bd 3f20 283d a6e6 16be 8e13 3a3d
00000020: 8223 f03d f3bc 85be f201 3c3e 6b92 383d
00000030: a247 9d3d f3c1 3dbc 2397 f739 46c2 9abd
00000040: bef5 0b3e 70fe bebb 260f 9fbd 6c0f 93bc
00000050: 1ecc 60be 4569 debd 2e38 ddbd d885 163e
00000060: 31a8 53be 66e9 bdbe 6ff0 1cbe f9db 07be
00000070: 7764 8a3d 5bbb 97be bd9a 173d 985f 4cbe
00000080: b9e6 413e d652 de3c e871 6cbe eafc 46bd
00000090: 1aa4 24bd 33c5 083e 890a 1bbd f9d0 b9bd
000000a0: 0a75 763c bb26 f6bd 4005 d1bb 59c9 d33d
000000b0: 2866 4f3e 3500 28bd b3f3 f93d 8f36 113b
000000c0: 151e c73d 7b7c 23bd d293 b6be 7896 f8bd
000000d0: bf93 26be 86b4 143e e506 963d e722 5e3d
000000e0: aea8 0d3e a9c3 a53d f2e9 453e e357 01be
000000f0: ce09 913d 8441 3dbd eafa 0c3e 9da7 a0bd
00000100: 2026 d8bc 5bb4 debc 868a 1f3e a3fe 30be
00000110: 45b6 54be fa5f 3abe 2d8c 583e d0ed 703d
00000120: 0e6e 4e3e a2c0 66bd c373 07bc 94f7 92be
00000130: 64a0 bebe 653c 60bd 017c fe3b 4046 3e3e
00000140: 05c1 a2be 7501 16be 2984 2c3e 4921 073d
00000150: b59f 923e 7718 90be 74e3 e63d f69a 2abd
00000160: 7500 aa3c 102c 073e d16c c8bd b566 c9bd
00000170: a01c 163e c45a 033e c1ca 52be 6680 35be
00000180: d9d0 a63d c7ea 0fbe 2a6e cfbd 5a8e fcbd
00000190: 70d7 2abe 9766 0ebe fa73 debd c58a e03b
000001a0: 6e83 143e 1cef b1bd eec7 a3be b9ee 0cbf
000001b0: 6c7d 4abf fef1 a8be 92c3 cd3e c379 683e
000001c0: 6f24 493e 534d 6abe 3d4b 9bbe 6506 b43d
000001d0: 3987 123e 70d8 25bd 615b 273d d387 b9bd
000001e0: 8c25 c63d 0228 b6bd ea66 5cbc 0f25 c2bc
000001f0: 2804 96bd d5e6 88bd a4f3 993b 74d6 1abe
00000200: 3dbf 6d3e 92e5 be3c 0998 453e 4326 8bbd
00000210: 39fc b1be 9b22 cd3d 8412 e2bc 8dfd 8dbd
00000220: 9f02 96be b5ed 75be a69c b53d 29e9 1dbc
00000230: f67d b93d 6fb5 d3bd 7abf 783e ddda 2bbd
00000240: c543 743d 4e4c 223e 2312 453e c911 3d3e
00000250: fc22 0c3e c374 f5bd 2bab d63d b596 52be
00000260: 11b5 ddbd 4b9f 37be cdf7 453e c602 72bd
00000270: 8370 083e 9616 0c3e a294 863d 5cf7 edbd
00000280: 833b 253e 3f7e bc3d 0ac9 2a3e a86c a5be
00000290: 635c 63be bb93 91be 3506 ebbc 8be4 c93e
000002a0: 3146 adbc 7780 a5be c7cf cdbe 2790 03bd
000002b0: d454 9a3e 3251 753c d819 12be e0e0 80be
000002c0: 725a 56be c083 013e fb08 4e3e 62b7 91be
000002d0: 89b0 31bd b56e e63d 9a51 a53d 849c 0dbe
000002e0: 339d 37bd 6662 323e a5f3 cc3d 9c16 b2bd
000002f0: 2477 1dbe 0fe9 24be a27b 743c f8ab 0bbe
00000300: 8d5a 163d 7727 143e 38fc 2cbe b196 b7bd
00000310: 361a f6bd 14c2 12be 787e 53bd f90b 61bd
00000320: 4c08 e9bd 43d3 9e3b 3600 933e 1252 333e
00000330: d881 00bd de52 02be 5209 f4be 70af c7be
00000340: e65c b2bd 2af8 8b3d 3aa4 783e 9b75 6f3d
00000350: edff 57be 9d41 6dbd 99ec 2c3d db1a 683e
00000360: 6661 ce3d c1da cd3d 67f9 593e 002a 73bd
00000370: 8bfd 45be 4884 473e d15f 7d3c 2c93 dbbc
00000380: 38d0 87be ce3d 163e 8215 ca3d 2ea9 993d
00000390: 8b4a 2b3b 558d 42bc 410c 88bd 7b19 593e
000003a0: 71a9 3c3e 7b55 823e ccdb 023e a6f8 273e
000003b0: af98 7f3d 56a5 14be 212c 67be 62eb b3be
000003c0: 8352 593d 3d3a 66be 19dc 8bbe 4f73 8fbe
000003d0: 0e64 35be 5f88 89be 5f5b 83be 4f8f 5abd
000003e0: 4eef 043c 1716 193e a24a bdbc 8ddc dbbe
000003f0: f7ce e6be d5f8 08bf b5dc debe 69cd efbe

layer.0.bias f4 [16]
-0.2086344 -0.023737669 -0.1138634 -0.05670722 0.030515766 -0.24012509 -0.1212525 -0.023306878
-0.03999095 0.07106315 -0.013396146 -0.019562665 -0.09724668 0.13228261 0.027423197 -0.2788593
00000000: 42a4 55be 8075 c2bc 3731 e9bd d445 68bd
00000010: 33fc f93c 5ae3 75be 3b53 f8bd 11ee bebc
00000020: 8dcd 23bd 8f89 913d 827b 5bbc e241 a0bc
00000030: 4429 c7bd 1875 073e 9da6 e03c a5c6 8ebe

layer.2.weight f4 [32, 16, 5, 5]
-0.22491857 -0.10153642 0.044793416 -0.11176311 0.011116724 -0.11425138 -0.11564224 0.051419117
-0.036092777 0.036404267 -0.12664086 -0.18274379 -0.040290143 -0.07362338 0.06596601 -0.172287
-0.2156128 -0.051556107 -0.087095305 0.01788134 -0.1544976 -0.010351685 -0.040011726 0.047883656
0.051880132 -0.10697009 0.02393644 0.060792934 0.16494343 0.17436953 -0.16329536 0.052454997
0.007817677 -0.005065843 0.14171416 -0.21581352 -0.119783215 -0.0035892236 0.07733472 0.17165366
-0.16453202 0.04831746 0.1358844 0.10889144 0.15151177 -0.012210954 0.103987254 0.17937855
0.1649725 0.12762645 -0.13980843 -0.2058888 -0.0059565706 0.034832507 0.0315894 -0.20178986
-0.18893036 -0.020932639 -0.0020435692 0.0018806837 -0.35204506 -0.34391162 -0.008811042 0.01383262
-0.057012133 -0.24120492 -0.15861405 0.087163284 -0.08444965 -0.15906286 -0.21316083 -0.25142524
-0.006541605 -0.18835701 -0.13111274 0.12606902 0.07666765 -0.021908065 -0.10816921 -0.016457405
0.1648088 0.12061556 -0.04031533 -0.024483752 0.0032727818 0.10917046 0.099693805 0.048904818
0.048357468 -0.03080124 0.026075635 -0.034759916 -0.0773987 -0.034735143 -0.002423607 -0.11541576
-0.076146 -0.12646095 -0.03288472 -0.006920924 0.31763288 -0.3207514 -0.45881137 -0.034131676
0.187331 0.3342487 -0.2542317 -0.3745362 0.013030876 -0.014205927 0.49487585 -0.18115947
-0.5170113 0.06662765 0.001984375 0.51127106 0.013252021 -0.34804505 0.003979558 -0.05400624
0.37035722 0.13901345 -0.4199653 0.003957251 -0.039328836 -0.066048086 -0.07746417 -0.06535704
-0.012541236 -0.066201806 0.06135913 0.0013831942 0.0048179934 -0.060366932 -0.17877066 0.05391592
-0.02673732 0.08120161 -0.008348244 -0.12551287 0.054368574 0.0151726585 0.07485963 0.0283699
0.074937955 0.053317253 0.0069839945 -0.012489758 -0.009930033 0.060228784 -0.026967468 -0.022784717
0.02634043 0.058545098 -0.024998438 -0.29686773 0.03543542 0.10875438 0.12682836 0.013599625
-0.21617052 0.041539367 0.08431809 -0.021329751 0.068019725 -0.18389213 -0.10379823 0.08423022
-0.053094342 0.01776206 -0.12551154 -0.10613121 0.06712195 -0.03935792 0.04770062 0.059748672
-0.061767545 -0.041374374 -0.031042598 -0.08314575 -0.02371182 -0.005404847 0.12249154 0.042454537
-0.11133003 -0.05372988 0.018052267 0.01847217 -0.060391333 -0.051333185 -0.11001357 0.1090444
0.12916037 0.05543709 -0.019069772 0.0006708832 0.0971252 0.24033482 0.0056309733 -0.14153509
-0.09281857 -0.28190646 -0.42871085 -0.12610218 -0.024327258 -0.15589675 -0.2570763 -0.23139128
-0.40975 -0.40210977 -0.030658025 0.009564811 -0.045318604 -0.2555057 -0.22217794 0.06627771
0.12190427 -0.0278917 -0.31474924 -0.08735902 0.06317956 -0.018671008 -0.11463937 -0.23697674
-0.04058595 -0.07605026 -0.20826016 -0.36175612 -0.16680239 -0.02408328 -0.2166865 -0.512655
-0.47088543 -0.22334461 -0.019005442 -0.27068046 -0.44271857 -0.50377744 -0.34803307 -0.0910352
-0.12339472 -0.3017725 -0.5010033 -0.29732174 -0.36922228 -0.25016698 -0.4864544 -0.49348184
-0.33481613 -0.26620314 -0.10694482 0.013936757 0.17779483 0.18211769 -0.00080110744 -0.17381626
00000000: 0e51 66be 54f2 cfbd 4d79 373d 0fe4 e4bd
00000010: ec22 363c a1fc e9bd d7d5 ecbd da9c 523d
00000020: 05d6 13bd a41c 153d 24ae 01be 3021 3bbe
00000030: 4707 25bd dbc7 96bd 3019 873d 016c 30be
00000040: 9ac9 5cbe 7f2c 53bd 065f b2bd e37b 923c
00000050: 9e34 1ebe 1d9a 29bc 56e3 23bd a721 443d
00000060: 4380 543d 2213 dbbd 5a16 c43c 0302 793d
00000070: eee6 283e ed8d 323e e636 27be 0ddb 563d
00000080: b715 003c 5fff a5bb 841d 113e 38fe 5cbe
00000090: e750 f5bd 2e39 6bbb aa61 9e3d fac5 2f3e
000000a0: 157b 28be 87e8 453d 4825 0b3e 7a02 df3d
000000b0: e725 1b3e 7410 48bc 45f7 d43d 03af 373e
000000c0: 8dee 283e 82b0 023e f129 0fbe 83d4 52be
000000d0: 562f c3bb 88ac 0e3d e363 013d 00a2 4ebe
000000e0: f676 41be ed7a abbc 67ed 05bb 4681 f63a
000000f0: 403f b4be 2f15 b0be 305c 10bc 37a2 623c
00000100: 8e85 69bd 6cfe 76be b96b 22be aa82 b23d
00000110: f0f3 acbd 60e1 22be d546 5abe cfba 80be
00000120: f65a d6bb a9e0 40be 6b42 06be 3d18 013e
00000130: ee03 9d3d 8b78 b3bc d287 ddbd aed1 86bc
00000140: a3c3 283e 4a05 f73d b021 25bd 2692 c8bc
00000150: 2b7c 563b c394 df3d 442c cc3d 6b50 483d
00000160: 7b12 463d e252 fcbc 929c d53c 6a60 0ebd
00000170: 3683 9ebd 7046 0ebd 61d5 1ebb 195f ecbd
00000180: 6ff2 9bbd fb7e 01be 21b2 06bd ebc8 e2bb
00000190: c7a0 a23e 8739 a4be 53e9 eabe a8cd 0bbd
000001a0: b3d3 3f3e a522 ab3e a82a 82be 35c3 bfbe
000001b0: 757f 553c fabf 68bc 5e60 fd3e de81 39be
000001c0: da5a 04bf 1474 883d 4a0c 023b a9e2 023f
000001d0: 011f 593c f632 b2be f466 823b a635 5dbd
000001e0: 769f bd3e 8b59 0e3e b105 d7be d4ab 813b
000001f0: 4617 21bd 3844 87bd 89a5 9ebd e9d9 85bd
00000200: c279 4dbc d094 87bd b653 7b3d 4c4c b53a
00000210: 42e0 9d3b 5143 77bd a80f 37be f1d6 5c3d
00000220: 3908 dbbc 084d a63d 13c7 08bc 7286 00be
00000230: 95b1 5e3d be96 783c 0150 993d fe67 e83c
00000240: 1279 993d 3163 5a3d fed9 e43b d8a1 4cbc
00000250: 94b1 22bc 75b2 763d e1ea dcbc 04a7 babc
00000260: e3c7 d73c fccc 6f3d 86c9 ccbc 0cff 97be
00000270: bb24 113d 9eba de3d 4bdf 013e f6d0 5e3c
00000280: ce5b 5dbe 2f25 2a3d f6ae ac3d bbbb aebc
00000290: ed4d 8b3d 384e 3cbe 2b94 d4bd e580 ac3d
000002a0: 7479 59bd bd81 913c 1986 00be 525b d9bd
000002b0: 3c77 893d c535 21bd ba61 433d 06bb 743d
000002c0: f7ff 7cbd 2d78 29bd 0c4d febc 5248 aabd
000002d0: 4a3f c2bc 251b b1bb d8dc fa3d cfe4 2d3d
000002e0: 0001 e4bd dd13 5cbd 59e2 933c f352 973c
000002f0: e75c 77bd bf42 52bd cb4e e1bd ac52 df3d
00000300: 9e42 043e 0112 633d 3638 9cbc 36de 2f3a
00000310: 94e9 c63d 551a 763e 0784 b83b 93ee 10be
00000320: aa17 bebd 0b56 90be fd7f dbbe ee20 01be
00000330: f549 c7bc 66a3 1fbe 819f 83be d6f1 6cbe
00000340: c1ca d1be 55e1 cdbe 8a26 fbbc bab5 1c3c
00000350: 00a0 39bd a5d1 82be 9d82 63be 9cbc 873d
00000360: f2a8 f93d 227d e4bc d026 a1be 49e9 b2bd
00000370: 4964 813d f1f3 98bc 0cc8 eabd 08aa 72be
00000380: 743d 26bd 3dc0 9bbd 2742 55be 1938 b9be
00000390: 3fce 2abe 4c4a c5bc 11e3 5dbe 5c3d 03bf
000003a0: e517 f1be 73b4 64be 4db1 9bbc a196 8abe
000003b0: 02ac e2be 8ff7 00bf 6431 b2be aa70 babd
000003c0: 5fb6 fcbd ed81 9abe c141 00bf 8e3a 98be
000003d0: b40a bdbe e315 80be 8d10 f9be a7a9 fcbe
000003e0: 056d abbe c74b 88be e305 dbbd ff56 643c
000003f0: d90f 363e 0f7d 3a3e 6901 52ba e4fc 31be

layer.2.bias f4 [32]
0.052921683 -0.04801195 0.020168548 -0.023031233 0.095058694 -0.036417853 0.055252668 -0.034253985
0.01651919 0.030603264 -0.09644428 0.0031414703 -0.039335195 0.022497155 -0.09293006 -0.039414894
0.029315991 -0.03330656 0.042111546 -0.07370018 -0.0111172665 -0.08897439 0.046104264 -0.037902668
-0.036096815 0.032694016 -0.10697209 0.0061124396 -0.061681807 -0.10706022 0.06703784 -0.004608212
00000000: 68c4 583d 2ea8 44bd 8338 a53c ffab bcbc
00000010: 22ae c23d e32a 15bd 9f50 623d e84d 0cbd
00000020: 4153 873c b2b3 fa3c 9484 c5bd 20e1 4d3b
00000030: f11d 21bd f44b b83c 1e52 bebd 8371 21bd
00000040: 1728 f03c 766c 08bd 287d 2c3d 1ff0 96bd
00000050: 3225 36bc 3438 b6bd d3d7 3c3d d43f 1bbd
00000060: 41da 13bd 29ea 053d 2f14 dbbd dc4a c83b
00000070: 10a6 7cbd 6342 dbbd 234b 893d 7c00 97bb

layer.6.weight f4 [64, 32, 5, 5]
0.11910363 -0.21928059 -0.13245331 -0.18100643 -0.25245985 0.10502629 -0.27890834 -0.25388238
-0.1657585 -0.24301822 -0.03634708 -0.33644378 -0.211972 -0.16432537 -0.19559637 0.047564916
-0.18173584 -0.23712403 -0.2756916 -0.08816864 -0.060686268 0.01396317 0.068109736 -0.23269023
-0.19484508 0.090299904 0.18796517 0.041984852 0.192681 0.15996975 0.036826514 -0.017653814
0.0074273143 0.074015774 0.12754902 -0.06802592 -0.06462787 -0.011896661 0.057680327 -0.04903431
-0.07223586 -0.14150617 -0.25233477 -0.19847777 -0.3003822 0.06862738 -0.1328576 -0.088613294
-0.08992499 -0.20547384 -0.053124443 -0.0428238 -0.10902561 -0.03010287 -0.15443823 -0.042084973
-0.036545303 -0.015894411 -0.18463941 -0.19690064 0.011897058 -0.07553172 0.06421724 0.040183052
-0.06366083 0.039343067 0.03086138 -0.17096902 -0.061858714 0.22299667 -0.03059171 -0.24010433
-0.13347605 -0.058495823 -0.01185293 0.15772444 0.00030272536 -0.059409488 0.081734404 -0.058219817
0.07813865 -0.02320567 -0.15720968 -0.30319628 -0.17526196 -0.019038768 0.06348825 -0.25473484
-0.1452117 -0.018275976 0.079109475 0.07656452 0.023979422 0.11518933 0.01710668 0.09777977
-0.025033975 0.039152917 0.17906518 0.097560175 0.015673788 0.061495576 -0.08983233 -0.37398097
-0.33511025 -0.11418263 0.026756149 -0.20908248 -0.15979445 -0.14711863 -0.11115549 -0.0045133154
-0.014996361 -0.14836669 -0.05040976 0.22635455 0.17685905 0.09264639 -0.05751079 0.019120138
0.111094825 0.104260296 -0.11122953 -0.048990384 0.023190824 -0.04666542 -0.24992968 -0.13387878
-0.19610819 -0.09756474 0.03862024 0.21905601 0.0473947 -0.057231687 -0.07068936 -0.0804938
0.016948221 0.064666785 -0.07391874 0.04720164 -0.007321911 -0.07627349 -0.056455962 -0.037694808
-0.074627526 -0.077420965 -0.16022222 -0.066895805 -0.053202126 0.035045963 0.091404036 0.020542353
-0.08262493 -0.11414174 0.13103677 0.08439018 -0.021220056 0.020181257 0.08397477 -0.021817321
-0.10179257 -0.2578479 -0.1759167 -0.084175915 -0.22160162 -0.13702266 0.009873919 0.11678558
0.21273535 -0.046740152 0.06269624 0.01599283 0.070275016 0.04200443 0.036020502 -0.13088351
0.040676873 -0.05416757 -0.12614211 0.0034422032 0.13191022 -0.007536261 0.07305656 0.13897622
0.2618357 0.12424279 -0.11597064 0.033416547 -0.083867945 0.12792538 0.123136155 -0.092815176
0.15710208 -0.03732406 0.06328661 -0.033418808 -0.04518994 0.026162667 -0.0053117187 -0.13786155
0.099500395 0.03355007 0.027404584 -0.036965724 0.08281462 0.06474276 -0.1537926 -0.13294765
-0.237289 -0.29901224 -0.10276425 0.10710053 -0.102154456 -0.23101135 -0.2453313 -0.03589397
-0.25715244 -0.18598334 -0.08555479 -0.055032022 -0.009145397 -0.3059634 -0.15557551 0.068907745
0.036225952 -0.04318111 0.15705317 0.121449135 -0.13890266 -0.3486308 -0.13884139 -0.017693503
-0.2276418 -0.14150178 -0.064074084 -0.016580494 0.05479783 -0.08709918 0.031595804 0.11233755
0.073068164 -0.0075119385 -0.003588114 -0.0073883757 0.08535933 -0.09298713 0.04837217 0.012618295
-0.11238472 0.10469529 -0.16364795 0.013110567 -0.10158064 -0.04080584 0.06364842 0.122978866
00000000: 9bec f33d 178b 60be d7a1 07be c059 39be
00000010: 6b42 81be 0618 d73d 13cd 8ebe dffc 81be
00000020: 99bc 29be c5d9 78be ade0 14bd 5c42 acbe
00000030: 300f 59be e944 28be 6a4a 48be 6ed3 423d
00000040: f618 3abe a4d0 72be 7327 8dbe c391 b4bd
00000050: 2a92 78bd c8c5 643c 1e7d 8b3d 5946 6ebe
00000060: 7885 47be 28ef b83d f179 403e 4ff8 2b3d
00000070: 2b4e 453e 1ccf 233e 66d7 163d bb9e 90bc
00000080: d460 f33b 9595 973d 369c 023e 2c51 8bbd
00000090: 9e5b 84bd 36ea 42bc 3542 6c3d 33d8 48bd
000000a0: 65f0 93bd fee6 10be 0632 81be c23d 4bbe
000000b0: b2cb 99be 838c 8c3d d30b 08be e37a b5bd
000000c0: 982a b8bd bc67 52be 0499 59bd 0268 2fbd
000000d0: d248 dfbd 4b9a f6bc 0e25 1ebe 4b61 2cbd
000000e0: 87b0 15bd ff34 82bc 1d12 3dbe 52a0 49be
000000f0: e1eb 423c 60b0 9abd 5484 833d fc96 243d
00000100: 9c60 82bd 3226 213d 01d1 fc3c 8112 2fbe
00000110: 905f 7dbd 3d59 643e 779b fabc e9dd 75be
00000120: f2ad 08be 5199 6fbd cb32 42bc 8482 213e
00000130: 1cb7 9e39 5d57 73bd 5e64 a73d e777 6ebd
00000140: 2807 a03d d119 bebc 93fb 20be 8b3c 9bbe
00000150: df77 33be 31f7 9bbc 2106 823d 9b6c 82be
00000160: 60b2 14be 80b7 95bc 2604 a23d dccd 9c3d
00000170: 7e70 c43c 62e8 eb3d 4f23 8c3c c340 c83d
00000180: 0d14 cdbc cf5e 203d dd5c 373e a1cd c73d
00000190: 5166 803c c9e2 7b3d 03fa b7bd 6f7a bfbe
000001a0: 9293 abbe 95d8 e9bd b62f db3c b819 56be
000001b0: 28a1 23be 44a6 16be 7da5 e3bd 6fe4 93bb
000001c0: 4cb3 75bc 70ed 17be 777a 4ebd 7dc9 673e
000001d0: 8a1a 353e 64bd bd3d 6f90 6bbd d6a1 9c3c
000001e0: af85 e33d 6c86 d53d 4fcc e3bd 24aa 48bd
000001f0: affa bd3c 3d24 3fbd 91ed 7fbe 8517 09be
00000200: 96d0 48be 06d0 c7bd 4230 1e3d 3850 603e
00000210: f220 423d c66b 6abd 95c5 90bd efd9 a4bd
00000220: ffd6 8a3c 0570 843d b562 97bd 8256 413d
00000230: a4ec efbb 4735 9cbd 5e3e 67bd df65 1abd
00000240: 51d6 98bd e28e 9ebd 4b11 24be ab00 89bd
00000250: 79ea 59bd 5b8c 0f3d 0a32 bb3d 7048 a83c
00000260: 4237 a9bd 25c3 e9bd 812e 063e c2d4 ac3d
00000270: afd5 adbc 2a53 a53c f7fa ab3d 3dba b2bc
00000280: 9f78 d0bd a404 84be 8223 34be 6c64 acbd
00000290: 89eb 62be ab4f 0cbe 38c6 213c 472d ef3d
000002a0: 4cd7 593e 9a72 3fbd e366 803d 6503 833c
000002b0: 59ec 8f3d d60c 2c3d 3c8a 133d 5406 06be
000002c0: cb9c 263d d0de 5dbd 662b 01be 9696 613b
000002d0: 7913 073e bdf2 f6bb ad9e 953d c84f 0e3e
000002e0: 540f 863e 0173 fe3d 0482 edbd cadf 083d
000002f0: f5c2 abbd dffe 023e cf2e fc3d e215 bebd
00000300: 5edf 203e 1de1 18bd 699c 813d 29e2 08bd
00000310: 1619 39bd 1753 d63c ed0d aebb 942b 0dbe
00000320: ddc6 cb3d cc6b 093d 947f e03c 5f69 17bd
00000330: b69a a93d da97 843d cf7b 1dbe 6e23 08be
00000340: e3fb 72be 2218 99be 1076 d2bd 8657 db3d
00000350: 5b36 d1bd 3d8e 6cbe 2138 7bbe 8e05 13bd
00000360: 7ca9 83be 6b72 3ebe 5a37 afbd 4269 61bd
00000370: 93d6 15bc 3ca7 9cbe 304f 1fbe 811f 8d3d
00000380: aa61 143d adde 30bd 8cd2 203e 53ba f83d
00000390: 803c 0ebe bc7f b2be 702c 0ebe f7f1 90bc
000003a0: ef1a 69be d8e5 10be 4639 83bd d1d3 87bc
000003b0: b073 603d 0e61 b2bd 9a6a 013d 3b11 e63d
000003c0: c3a4 953d b526 f6bb 9026 6bbb 301a f2bb
000003d0: dfd0 ae3d 0970 bebd e621 463d f7bc 4e3c
000003e0: f629 e6bd 7c6a d63d 5493 27be b4cd 563c
000003f0: 8309 d0bd 0624 27bd 1a5a 823d 58dc fb3d

layer.6.bias f4 [64]
0.057034153 -0.08002454 -0.03273889 -0.036327854 -0.13719386 0.15186349 -0.1297143 -0.14106266
0.10173006 -0.13808057 -0.12395951 0.20982592 -0.11194644 -0.051096536 -0.09607856 -0.06016687
0.18816625 0.015522664 -0.041555226 -0.0838255 -0.016791275 0.014597005 0.24482904 -0.11367081
-0.08616271 0.017298078 -0.07945922 -0.11574857 0.03570939 -0.087627985 0.12799762 0.1516423
-0.03350702 -0.06609516 -0.11049942 -0.026553988 0.01781748 -0.003869131 -0.10603771 -0.07358292
-0.11524635 -0.07406948 -0.11703232 0.15304358 -0.053511336 0.03953606 -0.04482068 0.13572288
-0.081425 0.028878275 -0.0044480204 -0.08999491 -0.14076245 -0.01814086 -0.0012854919 0.15826058
-0.057766862 -0.12884668 0.028106598 -0.023727734 -0.10468108 -0.098950125 0.026086502 0.1022765
00000000: a59c 693d e8e3 a3bd 3719 06bd 84cc 14bd
00000010: 8c7c 0cbe 1a82 1b3e d3d3 04be bb72 10be
00000020: da57 d03d fe64 0dbe 7cde fdbd 9bdc 563e
00000030: 2d44 e5bd 9a4a 51bd d6c4 c4bd 8971 76bd
00000040: a7ae 403e c652 7e3c d035 2abd b4ac abbd
00000050: db8d 89bc 4728 6f3c 77b4 7a3e 3ecc e8bd
00000060: 1376 b0bd b3b4 8d3c 84bb a2bd 960d edbd
00000070: 0244 123d 4d76 b3bd cf11 033e 1e48 1b3e
00000080: a83e 09bd e65c 87bd 854d e2bd c087 d9bc
00000090: f7f5 913c 3f91 7dbb 4d2a d9bd a4b2 96bd
000000a0: 4706 ecbd bdb1 97bd a4ae efbd 75b7 1c3e
000000b0: b42e 5bbd 90f0 213d e495 37bd f0fa 0a3e
000000c0: 27c2 a6bd 2292 ec3c b3c0 91bb 404f b8bd
000000d0: 0824 10be 249c 94bc f37d a8ba 100f 223e
000000e0: f29c 6cbd 62f0 03be cf3f e63c aa60 c2bc
000000f0: 0963 d6bd 5da6 cabd 5cb3 d53c 5776 d13d

fc_layer.weight f4 [10, 576]
0.14427581 0.04469556 -0.11198389 -0.122125074 -0.07054392 -0.420767 0.011450369 0.0863162
-0.36227894 0.07832512 -0.0691241 -0.22011879 0.06861638 -0.1456738 -0.4625121 0.10623058
-0.024321258 -0.043263063 0.015551188 -0.015037902 0.112194024 -0.08189896 0.00509921 0.17987372
-0.14084618 -0.20284456 -0.1187304 -0.20194161 -0.26700714 -0.23518384 -0.11016796 -0.010480823
0.14391205 0.0047165793 -0.1791088 0.020841174 0.0021719371 -0.053568162 0.039509617 0.04267565
-0.07569016 0.07420104 -0.5250319 -0.1896942 0.02903725 0.12396874 -0.041770685 -0.16950113
0.004069913 -0.26014295 -0.06385567 -0.0016272655 -0.26104546 -0.060245786 -0.260332 0.03952905
-0.023233907 -0.29380667 -0.22186422 -0.061002422 0.104332045 -0.011311691 0.022434704 -0.29497534
0.05542173 0.10116179 -0.47207552 -0.031286523 0.060279302 -0.1865926 -0.030140076 -0.19793531
0.026478166 -0.06455584 -0.01736677 0.11877809 -0.25200495 0.11808206 -0.047692183 -0.17190248
-0.106979296 -0.058805063 -0.016641183 0.03174335 0.024492841 0.0828017 -0.32968476 0.11769403
0.11420909 -0.19755188 -0.23435171 -0.14292182 0.061230797 0.02187345 -0.14593653 -0.13243514
0.125522 0.0527609 -0.19016546 0.014542015 0.07278168 -0.13178892 0.06674163 0.085418545
0.13359933 0.16113226 -0.13233124 0.033229407 -0.27067024 -0.344575 -0.11362139 -0.15469314
-0.12044147 0.19378299 0.06772383 0.09093636 0.101264976 -0.041278824 -0.14186782 -0.40207517
0.031047458 -0.19152969 -0.15052095 0.019651372 -0.20661233 -0.085408814 0.04502944 -0.0026246083
-0.031337228 0.037272017 -0.040734407 -0.20136902 0.054300155 -0.26695403 -0.2725005 -0.0838592
-0.03395904 -0.11355573 -0.16599932 -0.13076457 -0.029742092 -0.025050612 0.0131576685 0.032295372
0.08291271 0.07264481 0.15279318 -0.0912014 0.021147259 0.080879115 -0.12559421 0.14499187
0.16576095 -0.14175467 -0.0644969 -0.15740997 -0.40946686 -0.032112688 -0.045057736 -0.40501496
-0.15061133 0.12325896 0.012589364 -0.03831086 0.027167259 -0.04077213 0.02975591 0.1833324
-0.061117373 0.0878932 0.16354702 -0.22843815 -0.1253008 0.11818586 -0.26382798 -0.09316705
0.1225085 -0.05568504 -0.024977498 0.06002489 -0.00068094354 0.014652969 0.04939428 -0.16698934
0.038178552 0.090496466 -0.2038673 0.08508483 0.11763489 -0.22304188 0.058813777 -0.17714186
-0.25110596 0.019845983 0.06294895 -0.36603326 -0.3306273 -0.03424371 0.13978608 -0.015529538
0.22104953 0.053114448 0.11629758 0.12299549 0.12226314 -0.2098738 -0.013066829 0.15774627
0.063502215 0.0495008 -0.043233912 -0.058232024 -0.14244707 0.049936462 0.096017614 -0.11910142
-0.1409898 -0.19502102 0.12973408 -0.37909973 0.00066465384 0.19909583 -0.24431469 -0.009357891
0.017605832 -0.078920834 -0.21174657 -0.006281334 -0.09055473 0.08412775 0.27145916 0.06582615
0.20792198 0.1486049 -0.0060127745 -0.12123532 -0.11048213 0.08573684 -0.038521033 -0.10168073
0.13988982 0.084416226 -0.055451795 -0.03904569 -0.0055637616 -0.057930864 -0.09970025 -0.01085471
-0.22814265 -0.077213556 0.072227634 -0.0026482577 0.051213056 0.03475993 -0.200846 0.06606744
00000000: 0abd 133e b112 373d cf57 e5bd b61c fabd
00000010: 5579 90bd c66e d7be 549a 3b3c 8cc6 b03d
00000020: a07c b9be ec68 a03d f090 8dbd d266 61be
00000030: bf86 8c3d 832b 15be 63ce ecbe 6b8f d93d
00000040: 603d c7bc 9c34 31bd 69ca 7e3c 8861 76bc
00000050: fbc5 e53d a4ba a7bd 4617 a73b d130 383e
00000060: fb39 10be 7cb6 4fbe ed28 f3bd c8c9 4ebe
00000070: 29b5 88be 08d4 70be bd9f e1bd c2b7 2bbc
00000080: ae5d 133e 898d 9a3b 4c68 37be 1cbb aa3c
00000090: 0f57 0e3b 4a6a 5bbd d6d4 213d aacc 2e3d
000000a0: 7103 9bbd b7f6 973d 7e68 06bf 323f 42be
000000b0: 87df ed3c 53e3 fd3d bd17 2bbd b491 2dbe
000000c0: e85c 853b 7531 85be c3c6 82bd f849 d5ba
000000d0: c0a7 85be 49c4 76bd 3c4a 85be 37e9 213d
000000e0: 0955 bebc d46d 96be 6030 63be addd 79bd
000000f0: 0aac d53d ac54 39bc fcc8 b73c 0207 97be
00000100: e501 633d ea2d cf3d e2b3 f1be 4c26 00bd
00000110: 6ee7 763d 2112 3fbe 52e8 f6bc 8eaf 4abe
00000120: bde8 d83c da35 84bd c244 8ebc ed41 f33d
00000130: cb06 81be 02d5 f13d e158 43bd 3407 30be
00000140: f617 dbbd 94dd 70bd 1753 88bc 5105 023d
00000150: 36a5 c83c f093 a93d 71cc a8be 9109 f13d
00000160: 75e6 e93d 0a4b 4abe e5f9 6fbe 195a 12be
00000170: 25cd 7a3d f32f b33c 6370 15be 149d 07be
00000180: d788 003e d01b 583d bcba 42be a241 6e3c
00000190: 900e 953d adf3 06be d6af 883d ebef ae3d
000001a0: 43ce 083e dbff 243e d781 07be 8f1b 083d
000001b0: 4a95 8abe 226c b0be 55b2 e8bd e167 1ebe
000001c0: 04aa f6bd 0c6f 463e cbb2 8a3d d83c ba3d
000001d0: 0364 cf3d fc13 29bd cc45 11be ccdc cdbe
000001e0: 3d57 fe3c 5c20 44be 2a22 1abe eafb a03c
000001f0: 2f92 53be d1ea aebd ca70 383d 9f01 2cbb
00000200: 775b 00bd 8baa 183d 1fd9 26bd ae33 4ebe
00000210: d769 5e3d 33ae 88be 2f85 8bbe 5fbe abbd
00000220: a218 0bbd e88f e8bd bafb 29be 26e7 05be
00000230: b0a5 f3bc f136 cdbc 4393 573c 2748 043d
00000240: 24ce a93d cdc6 943d d175 1c3e cdc7 babd
00000250: 043d ad3c f3a3 a53d c59b 00be c078 143e
00000260: 3dbd 293e 2328 11be f316 84bd 1430 21be
00000270: a4a5 d1be 9888 03bd 768e 38bd 1f5e cfbe
00000280: db39 1abe 326f fc3d 9f43 4e3c d9eb 1cbd
00000290: df8d de3c ad00 27bd abc2 f33c 7dbb 3b3e
000002a0: 3656 7abd 5a01 b43d df78 273e b1eb 69be
000002b0: da4e 00be 6e0b f23d 7614 87be 5ece bebd
000002c0: bde5 fa3d ff15 64bd 9c9d ccbc a9dc 753d
000002d0: 5981 32ba 0213 703c a851 4a3d 41ff 2abe
000002e0: 1d61 1c3d 3656 b93d 97c2 50be f540 ae3d
000002f0: 90ea f03d 1765 64be b7e6 703d ad64 35be
00000300: f690 80be 0b94 a23c 61eb 803d b668 bbbe
00000310: fb47 a9be 2243 0cbd 1524 0f3e 9a6f 7ebc
00000320: cf5a 623e 898e 593d 6d2d ee3d 0fe5 fb3d
00000330: 1965 fa3d 28e9 56be 4116 56bc 3d88 213e
00000340: 730d 823d 5ac1 4a3d 0b16 31bd b484 6ebd
00000350: a5dd 11be 2d8a 4c3d e2a4 c43d 72eb f3bd
00000360: a15f 10be 97b3 47be 03d9 043e 5c19 c2be
00000370: 2a3c 2e3a c7df 4b3e a12d 7abe d751 19bc
00000380: 1b3a 903c 3fa1 a1bd 18d4 58be a6d3 cdbb
00000390: c274 b9bd 2b4b ac3d b2fc 8a3e dccf 863d
000003a0: 80e9 543e e22b 183e cf06 c5bb 394a f8bd
000003b0: 7444 e2bd cc96 af3d 3bc8 1dbd fd3d d0bd
000003c0: 473f 0f3e 6ae2 ac3d 6c21 63bd 60ee 1fbd
000003d0: 3750 b6bb ea48 6dbd a52f ccbd f4d7 31bc
000003e0: 3a9e 69be 2422 9ebd 15ec 933d 648e 2dbb
000003f0: c8c4 513d 6e60 0e3d 93aa 4dbe 5e4e 873d

fc_layer.bias f4 [10]
0.08152996 0.29432178 -0.2880308 0.084948264 0.0014016828 -0.08248902 -0.09514351 0.053950302
0.105187714 -0.15148082
00000000: 2ef9 a63d 58b1 963e c678 93be 5bf9 ad3d
00000010: acb8 b73a 01f0 a8bd 9ada c2bd fefa 5c3d
00000020: a86c d73d ca1d 1bbe

exp_avg f4 [16, 1, 5, 5]
0.00037312243 0.000735188 0.0003916942 0.00046788173 0.00031175851 -0.000312878 -0.0009920155 -0.00053511164
-0.00043163498 -0.00035156184 -0.00064545864 -0.0018148129 -0.0017358228 -0.0022948647 -0.0021988307 0.00015240148
-0.00038210495 2.64565e-05 -0.0005748346 -0.0012364439 0.00018834248 0.0005844699 0.0013678937 0.0007767461
-3.1700307e-05 -0.00036766962 0.0011853297 0.0013993906 -0.0007066306 -0.0006958145 -0.0006237235 3.6521527e-05
0.0009806334 0.0002866164 0.00024070733 0.0033431856 0.0025585643 0.0022426809 -0.0003589134 -0.0012138685
0.006122522 0.005491055 0.004078508 0.0011100976 -0.00020187264 0.0031372793 0.0039420975 0.0025498315
0.0013120306 -0.00087350415 -0.0011392642 -0.000118727265 0.0028701755 0.0059846328 0.004545713 -0.005917331
-0.004969771 0.0011798261 0.004403953 0.0021009522 -0.0022264344 -0.00037794677 0.0034619228 0.005193763
0.0047643906 -0.003376237 0.00047991588 0.0011901287 0.00074252824 -0.00043907424 -0.011822717 -0.009185749
-0.0076291994 -0.0091801835 -0.011843903 -0.0006357274 -0.00096836087 -0.0054465383 -0.012554072 -0.017070025
-0.00040068792 -0.0014762296 -0.005751805 -0.013054613 -0.016029598 -0.0023348948 -0.004019853 -0.010131691
-0.014013271 -0.0118035 -0.0032191118 -0.0057821623 -0.010992622 -0.012587071 -0.009150631 -0.0018700855
-0.0058964565 -0.008966019 -0.009437954 -0.008083592 -0.007937927 -0.004162819 -0.0020954458 -0.000803456
-0.00017771147 -0.0080957115 -0.0014748081 0.0004268028 0.00040255408 0.0008250377 -0.008237175 -0.0010334027
0.0015264597 0.0020245658 0.00055142585 -0.014393671 -0.0069660493 -0.0021003478 0.0007700885 -3.2076165e-05
-0.013980401 -0.009637646 -0.005542803 -0.002171389 -0.0003090929 -0.004330651 -0.0042374996 -0.0030283132
-0.0016503162 -0.002980473 -0.0040281597 -0.0026495664 -0.0034667698 -0.0028868506 -0.0028968842 -0.0005874034
0.0013855583 -0.0016380015 -0.00425694 -0.0043223873 -0.00042406187 0.0009010403 -0.0031171702 -0.0032524883
-0.0019788686 -0.00012686562 -0.0015144765 -0.0019149875 0.0026600135 0.0054329806 0.004800645 0.0016227933
-0.00212502 -0.0021810725 0.00020257669 0.0037505517 -0.000978992 -0.0030791117 -0.003466976 -0.002457748
0.0024006953 -0.0040733484 -0.004909184 -0.002543474 -0.0026173391 -0.00020540575 -0.00429418 -0.0033011807
0.00011359748 0.00057949603 -0.00059980067 -0.0031003885 -0.0010862689 -0.0023696022 -0.0029475607 -0.0003352314
-0.0007971225 -0.0007039582 -0.00096359546 -0.000653085 -0.00035945553 -0.0010848902 -0.0011389445 -0.00033222462
-2.6722912e-05 -1.9927536e-05 -0.0008798781 -0.0005649485 0.00016474431 4.688967e-06 0.00035825864 -8.924292e-05
0.0002219222 0.00029958002 -6.357086e-05 0.00061541225 -3.3026947e-05 0.00010336534 0.00018021453 3.3698798e-05
-0.013899687 -0.011427947 -0.00974055 -0.011374668 -0.011282181 -0.011832388 -0.0077350964 -0.0069169775
-0.0038032352 -0.0008177068 -0.013942119 -0.009608548 -0.009035149 -0.003918717 -0.0010463797 -0.018935654
-0.013808472 -0.008952427 -0.0026059456 0.0014323724 -0.015854543 -0.016123855 -0.009754353 -0.003811552
0.0013533377 8.844012e-05 0.0014810441 0.0012867743 0.0033841685 0.0065767015 0.0014783707 0.002447966
0.0035206936 0.009303215 0.014257827 -0.0053535327 -0.0068976833 -0.0053798556 2.0713167e-05 0.007689442
-0.0032500834 -0.0050649242 -0.0030726742 4.1605555e-05 0.008486337 0.0011702263 -0.00063642027 0.0012042042
0.004695457 0.013545047 0.00084857724 0.00019307881 -1.4635414e-05 -1.805512e-06 -0.00046328353 0.0001733982
00000000: a59f c339 a2b9 403a 4e5c cd39 064e f539
00000010: 8573 a339 c609 a4b9 8406 82ba bc46 0cba
00000020: 114d e2b9 d551 b8b9 ff33 29ba 04df edba
00000030: 8c84 e3ba 7165 16bb 421a 10bb f6cd 1f39
00000040: 4255 c8b9 e7ee dd37 7fb0 16ba 2c10 a2ba
00000050: cd7d 4539 1c37 193a e54a b33a 8c9e 4b3a
00000060: f2f5 04b8 c8c3 c0b9 115d 9b3a c26b b73a
00000070: 2d3d 39ba 5267 36ba 6081 23ba b12e 1938
00000080: 9988 803a 0145 9639 6266 7c39 5919 5b3b
00000090: 96ad 273b f1f9 123b 8b2c bcb9 ab1a 9fba
000000a0: 709f c83b 4fee b33b 01a5 853b b280 913a
000000b0: c6ad 53b9 d09a 4d3b b62c 813b 131b 273b
000000c0: 71f8 ab3a dffb 64ba 5d53 95ba 37fd f8b8
000000d0: 8e19 3c3b bd1a c43b 34f4 943b 2ce6 c1bb
000000e0: 76d9 a2bb 65a4 9a3a 094f 903b 21b0 093b
000000f0: 5fe9 11bb 2827 c6b9 6de1 623b 7130 aa3b
00000100: 9b1e 9c3b db43 5dbb 389d fb39 18fe 9b3a
00000110: 3aa6 423a 8c33 e6b9 12b4 41bc d37f 16bc
00000120: 5dfe f9bb 7b68 16bc ee0c 42bc f2a6 26ba
00000130: 99d9 7dba e078 b2bb 98af 4dbc 70d6 8bbc
00000140: 6c13 d2b9 0c7e c1ba a379 bcbb 04e3 55bc
00000150: 8150 83bc 0905 19bb f9b8 83bb 64ff 25bc
00000160: eb97 65bc 7863 41bc bcf7 52bb 4b78 bdbb
00000170: 661a 34bc 013a 4ebc 87ec 15bc a81d f5ba
00000180: 1037 c1bb 36e6 12bc a6a1 1abc 0b71 04bc
00000190: 140e 02bc 4268 88bb bf53 09bb 059f 52ba
000001a0: 0f58 3ab9 e0a3 04bc 594e c1ba 81c4 df39
000001b0: e50d d339 5847 583a 37f5 06bc 3e73 87ba
000001c0: 7d13 c83a 94ae 043b 908d 103a 6fd3 6bbc
000001d0: 7543 e4bb fda5 09bb c4df 493a 8589 06b8
000001e0: 0d0e 65bc 38e7 1dbc 67a0 b5bb dd4d 0ebb
000001f0: bf0d a2b9 22e8 8dbb b9da 8abb aa76 46bb
00000200: 6c4f d8ba 0a54 43bb a7fe 83bb 59a4 2dbb
00000210: bf32 63bb 5131 3dbb a7d9 3dbb fafb 19ba
00000220: 9f9b b53a 36b2 d6ba cd7d 8bbb d0a2 8dbb
00000230: 9f54 deb9 ca33 6c3a 7049 4cbb b327 55bb
00000240: e8af 01bb 3b07 05b9 6681 c6ba 5100 fbba
00000250: 9f53 2e3b 2507 b23b bb4e 9d3b e8b3 d43a
00000260: eb43 0bbb 53f0 0ebb c46a 5439 d1cb 753b
00000270: 8551 80ba ecca 49bb 3536 63bb 2b12 21bb
00000280: fc54 1d3b b979 85bb 38dd a0bb 6ab0 26bb
00000290: aa87 2bbb 3062 57b9 31b6 8cbb 9f58 58bb
000002a0: 2f3b ee38 52e9 173a f13b 1dba e32f 4bbb
000002b0: 2361 8eba 544b 1bbb dd2b 41bb ffc1 afb9
000002c0: fcf5 50ba d689 38ba cc99 7cba cb33 2bba
000002d0: 4e75 bcb9 e032 8eba a348 95ba 6f2e aeb9
000002e0: 042b e0b7 0f2a a7b7 9fa7 66ba 0d19 14ba
000002f0: 37bf 2c39 eb55 9d36 a9d4 bb39 ee27 bbb8
00000300: c9b3 6839 f310 9d39 5851 85b8 9e53 213a
00000310: 6a86 0ab8 d8c5 d838 f8f7 3c39 cf57 0d38
00000320: 83bb 63bc 493c 3bbc d496 1fbc d15c 3abc
00000330: e6d8 38bc a2dc 41bc b176 fdbb d0a7 e2bb
00000340: b33f 79bb 605b 56ba 7c6d 64bc 2c6d 1dbc
00000350: 2908 14bc 9568 80bb ad26 89ba f21e 9bbc
00000360: ee3c 62bc 33ad 12bc 83c8 2abb 71be bb3a
00000370: 63e1 81bc 2d16 84bc b9d0 1fbc 3bcb 79bb
00000380: 7a62 b13a ee78 b938 981f c23a fba8 a83a
00000390: edc8 5d3b 5f81 d73b e4c5 c13a 0e6e 203b
000003a0: 70bb 663b 836c 183c a999 693c b06c afbb
000003b0: f605 e2bb 8049 b0bb 30c1 ad37 b7f7 fb3b
000003c0: 5aff 54bb aaf7 a5bb eb5e 49bb a081 2e38
000003d0: 470a 0b3c 4762 993a 71d5 26ba 63d6 9d3a
000003e0: 59dc 993b 0bec 5d3c 0e73 5e3a 3375 4a39
000003f0: a08a 75b7 ec54 f2b5 dde4 f2b9 3ad2 3539

exp_avg_sq f4 [16, 1, 5, 5]
0.0005793735 0.00047312642 0.00033580716 0.00024486508 0.00013137661 0.0006110223 0.00047190848 0.000354639
0.00022776217 0.00010696997 0.00056803273 0.0005514633 0.0004508981 0.00027752985 0.00015893724 0.0002843889
0.00038222707 0.00042891863 0.0003072127 0.0002023511 0.00012658173 0.00019356173 0.00028856404 0.0002928053
0.00018809712 1.7513798e-05 9.608613e-05 0.0005075145 0.0006428705 0.0003111851 8.49043e-05 0.0001893162
0.00078576733 0.00082913705 0.00042476688 0.00034757057 0.0005449029 0.0010730692 0.0010478547 0.0008087654
0.0007908613 0.0009472077 0.0013201565 0.0014147417 0.0014669414 0.0012168864 0.0015084146 0.0017243433
0.0018005274 0.0016777177 0.0003811623 0.00072070933 0.0014240486 0.0021333464 0.0020708404 0.00084022933
0.0014152195 0.0020853465 0.0020819288 0.0014610828 0.0012952922 0.0016671023 0.001688925 0.0011145137
0.0006631128 0.001527725 0.0015696206 0.0011762239 0.0006084961 0.0003949014 0.0018470678 0.0017218363
0.0013032921 0.00083105883 0.0007133597 1.9174768e-05 9.1629874e-05 0.00061197963 0.0016773369 0.0024991068
2.208976e-05 0.00018521902 0.0010093322 0.0023038145 0.0028024428 0.00017353156 0.00052942935 0.0014289224
0.0024656917 0.0022598703 0.00037936476 0.0007764201 0.0015330971 0.0019321747 0.0015556312 0.00049330865
0.0009842581 0.00143301 0.0014497846 0.0011819736 0.0017761455 0.0007417596 0.00015006868 0.0001065102
0.00025651915 0.002046914 0.000656793 4.758322e-05 4.03685e-06 2.2306582e-05 0.0031751737 0.0014743808
0.0004890187 0.00018426742 0.00015886076 0.0038504968 0.0025011085 0.0013515647 0.0007185116 0.00050716166
0.003808259 0.0028289715 0.0019336178 0.0012904495 0.00096759776 0.0020062288 0.0016564535 0.0015213188
0.001981625 0.0022144145 0.0021323557 0.0014015827 0.0013695551 0.0022576593 0.0024091403 0.002147168
0.0014621265 0.0016799098 0.0025505314 0.002354743 0.002768935 0.0022336342 0.0024465674 0.0027385007
0.002266729 0.0033380128 0.003374765 0.0032345853 0.0028323838 0.0022065977 0.0015197563 0.0018338979
0.0023006173 0.002119667 0.0015341588 0.0018891911 0.0024702174 0.0027772826 0.0018653122 0.0007059113
0.0019454838 0.002468679 0.0025025993 0.0010259873 0.00016508765 0.0008929336 0.0019971135 0.002882747
0.0010989017 0.00019484459 0.00062313076 0.0020387408 0.0031796603 0.001779316 0.000793361 0.00014276309
0.00029942728 0.00054405845 0.00039510068 0.0001356254 0.00034345116 0.00047825396 0.00040183263 0.00014483511
4.312206e-05 0.00056459784 0.00039562516 0.00017492544 5.2091757e-05 2.2503848e-05 0.00037700598 0.00017024703
0.00010540454 6.7790956e-05 3.486548e-05 0.00021501217 8.449282e-05 7.220312e-05 6.348931e-05 5.5804845e-05
0.0014143249 0.0012081118 0.001515162 0.0020634073 0.0020364774 0.0015097355 0.0007259496 0.00074444275
0.0014710661 0.0019190579 0.0027582764 0.0016533136 0.0015432771 0.0022716683 0.0020772724 0.003869219
0.0036494858 0.003435448 0.0030528812 0.0017976533 0.003245112 0.0039507537 0.0035246755 0.0022558277
0.0012081785 0.004607022 0.004526356 0.00400372 0.0035805749 0.0034676732 0.004118691 0.0035726535
0.0028728251 0.0025612859 0.0025860493 0.0029484811 0.0019063788 0.0011324619 0.0009996262 0.0013478762
0.0018330527 0.00081586215 0.00039081843 0.00046653053 0.0011457034 0.001104546 0.00046003293 0.00048599363
0.0009822281 0.0024482184 2.7414017e-05 1.3413184e-06 3.7012668e-07 4.356076e-07 4.2141302e-05 1.5006539e-06
00000000: 19e1 173a f40d f839 460f b039 3c61 8039
00000010: 24c2 0939 032d 203a 7c6a f739 d7ee b939
00000020: 71d3 6e39 1155 e038 08e8 143a 1390 103a
00000030: 8566 ec39 6d81 9139 64a8 2639 081a 9539
00000040: a665 c839 7ce0 e039 6411 a139 362e 5439
00000050: 06bb 0439 d5f6 4a39 694a 9739 aa83 9939
00000060: f03b 4539 98ea 9237 d981 c938 b90a 053a
00000070: 4f86 283a 8f26 a339 a60e b238 2e83 4639
00000080: f4fb 4d3a 725a 593a 3fb3 de39 223a b639
00000090: d1d7 0e3a 3aa6 8c3a 2b58 893a 5403 543a
000000a0: ce51 4f3a 084e 783a 1a09 ad3a db6e b93a
000000b0: 6346 c03a ef7f 9f3a ffb5 c53a 5c03 e23a
000000c0: adff eb3a dde6 db3a bdd6 c739 fced 3c3a
000000d0: 24a7 ba3a 9dcf 0b3b f0b6 073b d642 5c3a
000000e0: e37e b93a 4faa 083b f870 083b ce81 bf3a
000000f0: cbc6 a93a ac82 da3a eb5e dd3a e014 923a
00000100: bfd4 2d3a f23d c83a babb cd3a 862b 9a3a
00000110: 7b83 1f3a c50a cf39 5019 f23a 3daf e13a
00000120: 3ad3 aa3a 6adb 593a c200 3b3a 80d9 a037
00000130: 6a29 c038 426d 203a 16da db3a 0ec8 233b
00000140: 664d b937 5a37 4239 924b 843a 98fb 163b
00000150: 30a9 373b 06f6 3539 67c9 0a3a ae4a bb3a
00000160: 7197 213b 551a 143b 7ae5 c639 ac88 4b3a
00000170: 34f2 c83a 0641 fd3a 52e6 cb3a 6251 013a
00000180: 3902 813a d6d3 bb3a b306 be3a 74ec 9a3a
00000190: 8ecd e83a a572 423a c15b 1d39 3a5e df38
000001a0: 6b7d 8639 8525 063b a22c 2c3a 1894 4738
000001b0: 4774 8736 051f bb37 9316 503b 0340 c13a
000001c0: 7d31 003a e937 4139 dc93 2639 9e58 7c3b
000001d0: a3e9 233b fc26 b13a 7f5a 3c3a 0bf3 043a
000001e0: fc93 793b 4466 393b 7271 fd3a 4d24 a93a
000001f0: 63a6 7d3a ef7a 033b 5b1d d93a fd66 c73a
00000200: 27de 013b b61f 113b febe 0b3b 50b5 b73a
00000210: a582 b33a 3df5 133b abe2 1d3b 80b7 0c3b
00000220: d3a4 bf3a 6b30 dc3a d126 273b 0852 1a3b
00000230: 0577 353b 2a62 123b 9756 203b 6b78 333b
00000240: 678d 143b 90c2 5a3b 292b 5d3b 56fb 533b
00000250: 849f 393b 919c 103b 8f32 c73a 675f f03a
00000260: f4c5 163b 1cea 0a3b d415 c93a bc9e f73a
00000270: 5fe3 213b 1203 363b 7e7d f43a e80c 393a
00000280: 9bff fe3a 90c9 213b a602 243b 6c7a 863a
00000290: 611b 2d39 c213 6a3a 01e2 023b 78ec 3c3b
000002a0: 0609 903a 324f 4c39 9959 233a 659c 053b
000002b0: d961 503b f037 e93a 8ef9 4f3a adb2 1539
000002c0: 73fc 9c39 259f 0e3a 8425 cf39 ab36 0e39
000002d0: 3c11 b439 29be fa39 10ad d239 e1de 1739
000002e0: f6dd 3438 8501 143a e96b cf39 316c 3739
000002f0: 197d 5a38 a5c6 bc37 e3a8 c539 5784 3239
00000300: a20c dd38 fe2a 8e38 863c 1238 e474 6139
00000310: bd31 b138 c16b 9738 9025 8538 ff0f 6a38
00000320: de60 b93a 8159 9e3a 6698 c63a 3b3a 073b
00000330: 6c76 053b 51e2 c53a a74d 3e3a b526 433a
00000340: cad0 c03a e688 fb3a 33c4 343b 00b4 d83a
00000350: c947 ca3a 45e0 143b d922 083b b992 7d3b
00000360: 362c 6f3b 4125 613b d912 483b 3c9f eb3a
00000370: f2ab 543b 5375 813b 3efe 663b 82d6 133b
00000380: be5b 9e3a 80f6 963b d351 943b a331 833b
00000390: 14a8 6a3b e741 633b 16f6 863b 2e23 6a3b
000003a0: 0246 3c3b 3fdb 273b b57a 293b 4e3b 413b
000003b0: 75df f93a 1e6f 943a e405 833a 38ab b03a
000003c0: 0b43 f03a 95df 553a c3e6 cc39 ab98 f439
000003d0: 6d2b 963a 6ac6 903a 9330 f139 f6cc fe39
000003e0: 1bbe 803a 4a72 203b 27f7 e537 5907 b435
000003f0: d3b5 c634 74dd e934 e1c0 3038 136a c935

exp_avg f4 [16]
-0.0008353669 0.0057185763 -0.0070351856 -0.021194976 -0.030656558 0.0013740202 0.0020826152 0.0017114318
-0.012133693 0.04817127 -0.01390375 0.013937471 0.06044038 -0.034330662 0.03288407 -0.0048849583
00000000: 86fc 5aba e562 bb3b 6a87 e6bb 16a1 adbc
00000010: 7623 fbbc 7818 b43a 7c7c 083b 1f52 e03a
00000020: 66cc 46bc 3d4f 453d 8ecc 63bc fe59 643c
00000030: 5590 773d 4f9e 0cbd 72b1 063d 0012 a0bb

exp_avg_sq f4 [16]
0.00088630355 0.0033661071 0.004145324 0.0040190723 0.020874659 0.0055873077 0.005442027 0.0017407719
0.009213877 0.035560805 0.0062277266 0.008909829 0.0103171505 0.033408407 0.010300197 0.005008357
00000000: d356 683a e899 5c3b 80d5 873b 6cb2 833b
00000010: 5501 ab3c bc15 b73b 0853 b23b 9d2a e43a
00000020: cdf5 163c 35a8 113d f511 cc3b 88fa 113c
00000030: 4409 293c 41d7 083d 28c2 283c 251d a43b

exp_avg f4 [32, 16, 5, 5]
-1.4852014e-11 7.9806523e-07 1.2863953e-05 -2.828897e-06 2.174092e-06 -1.0219453e-12 6.8840182e-09 2.7784496e-05
4.5861066e-06 -3.682047e-05 -2.7682598e-10 4.30111e-10 2.3787923e-05 -2.9875682e-06 -7.49708e-06 5.8983492e-08
2.3532745e-09 1.3906293e-06 1.3114344e-05 -3.731403e-06 1.1304241e-07 -1.453893e-09 8.6607866e-07 1.7596209e-05
5.0455932e-05 3.678795e-05 -9.819943e-05 -0.00018703671 -0.00013042042 -0.00014746249 2.3049668e-05 -4.753377e-05
-0.00023802023 4.0710336e-05 -0.00011621693 6.613549e-05 8.6861604e-05 1.4203678e-05 -6.1195183e-06 -0.00013726534
3.572283e-05 0.00011357581 0.0002535369 -3.720856e-05 -0.00020971804 -8.660813e-06 0.00012302765 0.00019889383
9.312879e-05 -0.0001254382 1.6417282e-06 5.8018253e-05 1.4198279e-05 7.5581454e-05 -1.8969244e-05 2.3187265e-06
-1.2675768e-05 1.0341434e-05 -7.728004e-05 -8.776019e-05 1.7497601e-05 1.4022197e-05 -4.637829e-05 9.973755e-05
0.00014332656 2.6508884e-05 -3.978484e-06 1.41577875e-05 0.00024328408 0.00023760014 2.8559136e-05 -4.9929407e-05
-2.3485873e-05 0.00019434548 9.701903e-05 2.6172775e-05 -0.00010165025 -0.00051712984 -0.0005141996 -0.0004746472
-0.00012512362 -0.00023926534 -0.00037657897 -0.000626074 -0.0005229487 -0.0001907261 -0.00037874075 -0.0007340526
-0.00072747405 -0.00050307676 -0.00022052744 -0.0007592056 -0.0012276663 -0.001079046 -0.0006764724 -0.00011228037
-0.0009456386 -0.0014136188 -0.0014071334 -0.00041862112 -5.7833644e-05 -1.8072902e-07 3.0094109e-06 0.00044530787
0.00079584616 -6.536751e-05 -1.4381839e-05 -8.610174e-07 7.3128744e-05 0.00052188593 -6.0814356e-05 3.472599e-07
-1.599441e-09 6.0852282e-05 0.00028924667 -3.9274346e-05 -1.2543289e-05 -1.3767539e-09 8.540383e-05 0.00035368334
-1.9851876e-05 -2.4268411e-05 -3.5159235e-06 9.369645e-06 0.00036739898 8.484513e-05 -0.0002285189 -0.00020877029
-0.00035601706 -0.00022284199 5.071927e-06 -0.00018580869 -9.3223076e-05 -0.0003484886 -5.427446e-05 7.744066e-05
-7.041905e-05 1.8143737e-05 -0.00024747767 7.928766e-05 -6.131447e-05 -0.00017348646 -1.3342557e-05 -3.6259127e-05
-2.5001602e-05 -0.00030369477 -8.7310844e-05 -0.0001263751 5.6465706e-05 -6.871817e-05 1.2357137e-07 0.00013917308
0.0005687865 0.00034533537 -0.00021453509 -5.7069368e-08 0.000134091 0.00058021117 0.00022253039 -0.0003155738
-4.3122284e-08 5.9330967e-05 0.00061901397 0.00041722303 -0.0002968872 -2.9063046e-06 3.8672813e-05 0.00061192026
0.0005191771 6.964511e-05 3.0728936e-06 1.4985054e-05 0.000738889 0.00051994284 0.0002873113 -5.016792e-07
1.0667108e-06 -1.1939261e-05 -1.7298917e-07 8.336099e-06 -5.7354807e-08 2.4830927e-06 1.2878261e-06 2.0051883e-05
-1.0417585e-05 -3.630491e-08 3.026072e-05 3.0858558e-07 5.278404e-06 -3.0511326e-06 -7.030381e-08 2.1812707e-06
7.575548e-07 -6.196728e-07 -2.463826e-05 -1.5296513e-07 -2.2960178e-07 -2.5891754e-06 4.410105e-06 -2.3108712e-05
-6.066417e-05 1.6416197e-05 -3.826532e-05 -1.6393802e-05 0.00021447772 -2.5142606e-05 -3.233752e-06 -1.6107542e-05
-1.0700194e-06 4.441375e-06 -1.965981e-05 3.1912234e-05 2.8185787e-05 3.980704e-05 -8.075222e-07 5.1153373e-05
-0.00017594322 -8.3932486e-05 -7.5439134e-06 0.00012866543 5.8226364e-05 -0.00019474767 -0.00043931772 -7.981865e-05
-0.00010577847 8.394305e-05 -8.831967e-05 3.2135442e-05 5.297701e-05 6.290962e-05 -6.6041204e-05 -2.3655875e-05
6.970407e-05 -4.2451215e-06 4.7476507e-05 -0.00015218322 8.039206e-06 -4.1341264e-05 -7.793158e-05 -5.8366237e-05
-0.00018805444 -2.788516e-05 -4.408508e-06 -9.438694e-06 3.798864e-05 -0.0002643707 -0.00025627442 -0.00028470732
-0.00034475458 -0.00072779023 -0.00011407607 -0.00039626207 -0.0002004356 -0.00018310118 7.254543e-05 -9.534915e-05
00000000: c3a3 82ad a03a 5635 42d2 5737 15d8 3db6
00000010: 9ee6 1136 76d3 8fab 7788 ec31 c012 e937
00000020: 5be2 9936 ae6f 1ab8 cb2f 98af be74 ec2f
00000030: 2d8c c737 087e 48b6 6d8f fbb6 0955 7d33
00000040: 3eb7 2131 a9a5 ba35 ae05 5c37 0469 7ab6
00000050: b9c1 f233 50d2 c7b0 797c 6835 929b 9337
00000060: a5a0 5338 c34c 1a38 6bf0 cdb8 491f 44b9
00000070: 77c1 08b9 29a0 1ab9 c95a c137 ff5e 47b8
00000080: 1295 79b9 64c0 2a38 7db9 f3b8 39b2 8a38
00000090: 7829 b638 554c 6e37 4356 cdb6 e2ee 0fb9
000000a0: 19d5 1538 8c2f ee38 26ed 8439 6310 1cb8
000000b0: c2e7 5bb9 e94d 11b7 fc00 0139 288e 5039
000000c0: 234e c338 0f88 03b9 5a59 dc35 a058 7338
000000d0: 2535 6e37 7c81 9e38 2420 9fb7 6b9b 1b36
000000e0: 02aa 54b7 1f80 2d37 6811 a2b8 e50b b8b8
000000f0: d0c7 9237 e140 6b37 4f86 42b8 302a d138
00000100: ee49 1639 655f de37 eb7e 85b6 3c87 6d37
00000110: 131a 7f39 4d24 7939 4792 ef37 4b6b 51b8
00000120: 8703 c5b7 38c9 4b39 b276 cb38 9b8d db37
00000130: 102d d5b8 ff8f 07ba 5acb 06ba 12da f8b9
00000140: 9e33 03b9 4de3 7ab9 936f c5b9 1d1f 24ba
00000150: 7e16 09ba a6fd 47b9 b991 c6b9 706d 40ba
00000160: f5b3 3eba e9e0 03ba 623d 67b9 6d05 47ba
00000170: a5e9 a0ba c76e 8dba 4b55 31ba 1178 ebb8
00000180: bbe4 77ba 2d49 b9ba 906f b8ba 607a dbb9
00000190: 6792 72b8 6a0e 42b4 49f5 4936 3678 e939
000001a0: 55a0 503a ea15 89b8 8749 71b7 aa20 67b5
000001b0: b25c 9938 2ccf 083a eb12 7fb8 0a6f ba34
000001c0: 54d3 dbb0 a43b 7f38 08a6 9739 82ba 24b8
000001d0: 0471 52b7 3938 bdb0 d51a b338 936e b939
000001e0: 9487 a6b7 0494 cbb7 1bf3 6bb6 5232 1d37
000001f0: 759f c039 e2ee b138 939e 6fb9 59e9 5ab9
00000200: cda7 bab9 b1aa 69b9 852f aa36 a4d5 42b9
00000210: c280 c3b8 59b5 b6b9 c2a4 63b8 a367 a238
00000220: f1ad 93b8 6133 9837 e4bf 81b9 3d47 a638
00000230: f595 80b8 ebe9 35b9 d9d9 5fb7 f114 18b8
00000240: 88ba d1b7 3939 9fb9 a71a b7b8 8f83 04b9
00000250: 97d5 6c38 c91c 90b8 0aaf 0434 fdee 1139
00000260: 9e1a 153a 210e b539 d3f4 60b9 6f1c 75b3
00000270: c79a 0c39 5019 183a 0c57 6939 9973 a5b9
00000280: 7435 39b3 24da 7838 5345 223a babe da39
00000290: 87a7 9bb9 ef09 43b6 9e34 2238 4669 203a
000002a0: 6319 083a 6f0e 9238 e937 4e36 5168 7b37
000002b0: 00b2 413a c64c 083a 45a2 9639 22ab 06b5
000002c0: e72b 8f35 bc4e 48b7 e7be 39b4 46db 0b37
000002d0: 4756 76b3 35a3 2636 5ed9 ac35 1735 a837
000002e0: 30c7 2eb7 aced 1bb3 67d8 fd37 aeab a534
000002f0: 251d b136 0fc2 4cb6 eef9 96b3 f261 1236
00000300: c55a 4b35 9757 26b5 43ae ceb7 bc3e 24b4
00000310: 7588 76b4 b2c1 2db6 83fa 9336 95d9 c1b7
00000320: a871 7eb8 84b5 8937 137f 20b8 6c85 89b7
00000330: 6de5 6039 56e9 d2b7 7003 59b6 af1e 87b7
00000340: 969d 8fb5 1f07 9536 1feb a4b7 80d9 0538
00000350: 8470 ec37 7cf6 2638 81c4 58b5 848d 5638
00000360: 667d 38b9 e904 b0b8 b921 fdb6 5dea 0639
00000370: 1538 7438 2e35 4cb9 3a54 e6b9 5064 a7b8
00000380: 62d5 ddb8 950a b038 4338 b9b8 2bc9 0638
00000390: a233 5e38 58ee 8338 9a7f 8ab8 9b70 c6b7
000003a0: 162e 9238 5171 8eb6 8321 4738 5f93 1fb9
000003b0: 20e0 0637 d865 2db8 336f a3b8 45ce 74b8
000003c0: 7b30 45b9 edea e9b7 ccec 93b6 e25a 1eb7
000003d0: fe55 1f38 3c9b 8ab9 925c 86b9 c544 95b9
000003e0: 2dc0 b4b9 2dc9 3eba 203c efb8 65c1 cfb9
000003f0: 062c 52b9 d9fe 3fb9 8823 9838 2ff6 c7b8
